AGTS_Models/cartpole/PPO_cartpole_0_0.pth (torch, 27714 bytes, 10 tensors)

actor.0.weight f4 [64, 7]
00000000: fcb0 ad3e 14b3 803e 0240 6bbd 9fa3 9cbd
00000010: 6c41 a23d 72d6 043e 6f96 ad3e 1109 9abe
00000020: 60de 633e 8b81 823e ef81 0bbe b622 14be
00000030: 2a5f ab3e 9092 143e 3ed6 93be e873 5a3e
00000040: d3ca b2be 96b8 1fbe afea eabc 67ef 993d
00000050: 7c50 a0be 6b1c 683e 28f1 71be c0a3 96be
00000060: 42a1 1cbd 28d1 653e db51 583e 539f c03d
00000070: 3d92 52bd 84dd a7be 42c4 58be fdd6 9d3e
00000080: f680 7b3e 874a 80be 95dc a3be 1357 c13e
00000090: 0609 4e3e 66c5 0abe e59b a3bd e8ff 88be
000000a0: d6b8 62bd 4081 b63d 0439 86be 172d 803e
000000b0: 8df4 903d 8d6d 4dbd 7548 b9be fcd5 303e
000000c0: d8f6 0fbd 9d3e 7cbd 4904 2f3c 179a b13e
000000d0: 68e1 28be f0c8 5c3e a9df 2bbe 2061 c5bd
000000e0: c299 a1be 25a4 653e 0f21 2d3c 6e21 77be
000000f0: f6e5 a2be 8eb4 843e 7a4e 9c3e 7fd1 27be
00000100: d9e1 603e 0e0f 163e 428b 8a3e 806b a0be
00000110: ef5d 1abd d18d 993a 2d4b 903d 567c 3dbd
00000120: 1e59 343b e4cf 3f3e eff9 b2be 0828 56bd
00000130: 2501 a03b eca3 aebe b99b 633e 8571 ebbc
00000140: eb29 bd3d 3cd4 813d 7871 95bc 6faf 43be
00000150: f915 89be ea7b 823e 18b5 55be 42b1 bd3e
00000160: c354 a73e 96d6 0e3e 5cd7 823e 4e3e 3fbe
00000170: e33f c03d 6ccb 073e 36f3 a9be cc14 333e
00000180: cbe8 83be beb5 57bd dad2 823e c92f 1abe
00000190: e616 83bc c04d a13c f493 733e e9b1 95bd
000001a0: aef4 933e 5507 8f3e 970d 8fbd fbfd be3d
000001b0: f9e9 cf3d 9a24 c1be 919d 70be a30f 3f3e
000001c0: 9f32 953e 354d 0a3d 664f 6dbe b939 e2bd
000001d0: 804f af3e ec7d 58be dcc1 4f3e 8e47 5c3e
000001e0: c063 fe3d 781c a9be 6236 65be b768 00be
000001f0: 50ea 0f3e 7520 b5be 9d4c bc3e d207 92be
00000200: 8a44 2b3d 4e49 703e 5a65 a3be 0ca4 2dbe
00000210: da12 573e e372 1b3d 7d03 703e 51a9 4bbd
00000220: ce78 353e afd7 983d cc1a 82bc 055f a9be
00000230: 4c72 a93d fea9 613e 56a0 8d3c b5f8 8ebe
00000240: 7baf 183d 0526 1fbd 0556 b93e 7084 943e
00000250: f2ad cf3d a677 44be a6ed 683e db6b b13e
00000260: 24ee 2c3e 1e3b 5ebd 9d15 b83e 282a fdbd
00000270: fe6b f13d 1334 973d 5cc8 8d3e f1ba ffbc
00000280: 19da 5e3e d33b b53d b997 a23e 04d8 0ebd
00000290: e7c5 59bd 3387 87bd 3fe2 b83d 05f9 303e
000002a0: 85f5 803e 272f 783e bd85 48be 5dd5 883e
000002b0: b450 88ba 6154 283e 1314 c0be b303 573e
000002c0: a25a a5be f232 b53e ec25 11be 151d ae3e
000002d0: a3a4 c03e c804 833e caac 46bc 6743 023e
000002e0: b577 2dbd c108 d93d 8998 9fbe 4e47 38be
000002f0: 6daf a93e ae8e a73e 9450 bebe df8f 29be
00000300: 758d b9be f6cf a93b 55b8 78be 10bd 8abd
00000310: 444c a7be 7696 98bd 8a6f babe efd9 5bbb
00000320: 127a 623e 9274 eb3d 36ed 61be 6707 0abe
00000330: 1c3d 0c3e c2e2 5cbe c2ec 323c 2564 8c3d
00000340: db10 753d 269d c4bb 0a10 c1be e04a e33d
00000350: cf07 c3bd e5eb 8dbe 3481 903e a0f2 15be
00000360: 8411 c33c e502 6f3e 6852 383c cf6a 4bbc
00000370: 9693 ea3d 3ce4 eebd c60e 8fbc f137 943e
00000380: a2a5 9b3e 820a 15be 8510 853e 1a67 3fbe
00000390: 3b1e b73e 2191 98be 619a b3be bb1d 433e
000003a0: 236c 6bbc 3618 b3be 50db 21be 6c08 4c3d
000003b0: e601 8ebd 6b2d 983e aed2 d23c 956f adbe
000003c0: 2b89 9dbe a90a 013c bba0 633e 32d2 6abe
000003d0: bb26 6d3e 2ad1 29be dd77 42be 0577 8cbd
000003e0: 9135 dfbd f318 babe 856e d23d e0ef bb3d
000003f0: bdfa bebe 64eb 72be f61c 633e d262 b13e
0.3392409 0.25136626 -0.05743409 -0.07648396 0.079226345 0.1297243 0.33903834 -0.30085042
0.22252798 0.25489458 -0.13623784 -0.14466366 0.33471042 0.14509034 -0.2887439 0.21333277
-0.34920368 -0.15597758 -0.028676359 0.075163655 -0.31311405 0.2266709 -0.2362715 -0.29421806
-0.038239725 0.22443068 0.21124975 0.09405389 -0.051408995 -0.3278619 -0.21168616 0.30828086
0.24560913 -0.2505686 -0.32004228 0.37761745 0.2012063 -0.13551864 -0.07988719 -0.2675774
-0.055352055 0.08911371 -0.26215374 0.250344 0.07077894 -0.050153304 -0.36188093 0.17269129
-0.035147518 -0.06158315 0.010682174 0.34687874 -0.16492236 0.21561027 -0.16784538 -0.09637666
-0.3156262 0.22425897 0.010566964 -0.24133846 -0.3181607 0.25919002 0.30528623 -0.1638851
0.21961154 0.1465418 0.2705937 -0.31332016 -0.03768724 0.0011715238 0.07045589 -0.046261154
0.0027518938 0.18731648 -0.3495631 -0.05228427 0.004882949 -0.34109437 0.22227372 -0.028740654
0.09236511 0.063393086 -0.018242583 -0.19109891 -0.26774576 0.25485164 -0.20869863 0.370493
0.32681856 0.13949046 0.2555493 -0.18676111 0.093871854 0.13261193 -0.33193368 0.17488402
-0.25763544 -0.052663557 0.25551492 -0.15057291 -0.01600213 0.019690394 0.23786908 -0.07309324
0.28897613 0.2793528 -0.06985014 0.09325787 0.101520486 -0.37723237 -0.23497607 0.18658309
0.29140183 0.033765037 -0.2317482 -0.11046166 0.3424034 -0.21141785 0.20288795 0.21511671
0.124213696 -0.33029532 -0.22384027 -0.12539946 0.14054227 -0.35376325 0.367772 -0.2852159
0.04181341 0.23465464 -0.31913263 -0.1695711 0.21003285 0.03795136 0.2343883 -0.04972202
0.17721865 0.074630134 -0.015881918 -0.33080307 0.082737535 0.22037503 0.017288368 -0.27924123
0.037276726 -0.038854618 0.3619844 0.29007292 0.10140599 -0.19186267 0.22746906 0.346526
0.16887718 -0.054255597 0.3595399 -0.12361556 0.11788176 0.07382979 0.27691925 -0.03121707
0.21762885 0.08849301 0.3175638 -0.034873977 -0.05316725 -0.06617584 0.09027528 0.17282493
0.25187317 0.24236737 -0.19582267 0.26725283 -0.0010400028 0.16438438 -0.37515315 0.20997505
-0.3229571 0.3539043 -0.14174622 0.34006563 0.37625608 0.25589585 -0.012126157 0.12721024
-0.04235049 0.10597373 -0.31171063 -0.1799595 0.33141652 0.32726043 -0.3717085 -0.16558789
-0.36240736 0.0051822616 -0.24289067 -0.06774342 -0.32675374 -0.07450573 -0.36413223 -0.0033546647
0.22116879 0.114968434 -0.22063145 -0.13479386 0.13695186 -0.21570876 0.010920705 0.068550386
0.059830528 -0.006000179 -0.3770755 0.11098266 -0.09522974 -0.27719036 0.28223574 -0.14643335
0.023812063 0.23340948 0.011250116 -0.012415602 0.11453931 -0.11664626 -0.0174631 0.2894893
0.30399805 -0.1455479 0.25989166 -0.18691674 0.35765252 -0.29798225 -0.3507872 0.1905431
-0.0143690435 -0.3497941 -0.15806317 0.04981272 -0.06933956 0.2972215 0.025735226 -0.33874193
-0.30768713 0.007876077 0.22229283 -0.22931746 0.23159306 -0.16583696 -0.18991037 -0.06858639
-0.10898889 -0.3634716 0.10274986 0.09176612 -0.37300673 -0.23722607 0.22179016 0.34645706

actor.0.bias f4 [64]
00000000: f014 92bc c9db 573e 01cb e63d e95d bf3e
00000010: 7320 653e ad10 8c3e 62ac 0bbd e616 923e
00000020: d67e a5be 640c b9be 89aa 9cbe 2c63 783e
00000030: 40e7 933d b01f 1dbd 5f36 ff3d 55ef 8cbd
00000040: 01d7 cb3c 638b c4bd 1c61 9dbe 79b3 2f3e
00000050: b13d da3d 1171 943e 8324 e2bd 634c e33d
00000060: a6b2 4a3d ae67 46be efa3 71be 8bf8 803e
00000070: c5f8 97be 48c8 1c3d bc3b b6be ea3c 67be
00000080: e359 7ebe b16f 5d3e 17a8 db3d ba93 6cbe
00000090: 45d3 5bbe fe32 a8be 3bcf 4cbe 8b81 14be
000000a0: 93b8 93bd 286b acbe 0bba 79bc bb5f 5a3d
000000b0: 8987 b6be f8ec 19bd a402 86be 217d c03e
000000c0: 5f69 5e3d 2937 73be c56e 66be a805 96be
000000d0: 0557 a0be 0281 b73e 3fe1 853e af2f 74be
000000e0: e67d dabd c05d 873e ac43 773e e08a 06be
000000f0: 1036 583e 7642 493d 33cd e2bd 13d5 923e
-0.01783225 0.21079935 0.11269189 0.37376335 0.2237566 0.27356473 -0.034099944 0.28533095
-0.3232333 -0.36142266 -0.30598858 0.24256581 0.07221842 -0.038360298 0.12461542 -0.068815865
0.024882795 -0.095968984 -0.3073815 0.17158307 0.10656298 0.28992513 -0.1104212 0.11098554
0.04948678 -0.19375488 -0.23597692 0.25189623 -0.29681984 0.03827694 -0.3559245 -0.2258183
-0.24838977 0.21624638 0.1072542 -0.23103228 -0.21467312 -0.32851404 -0.20000927 -0.14502542
-0.07212939 -0.33675504 -0.01524211 0.053313952 -0.3565028 -0.037579507 -0.2617389 0.37595466
0.05429971 -0.2375151 -0.22503193 -0.2930119 -0.3131639 0.35840613 0.26148412 -0.23846315
-0.106685445 0.26438713 0.24146909 -0.13138914 0.21114373 0.049135648 -0.11074295 0.28678188

actor.2.weight f4 [36, 64]
00000000: 58d5 b6bd 8084 bf3a 24ef 743d 1838 b03c
00000010: 648a 1bbd 10fe 47bc 4c81 84bd 80ce 063d
00000020: f2b2 d7bd 40ca 153b f862 c3bd 0093 6cba
00000030: 1c3f 87bd e4b4 ffbd f0f0 0a3c d4e7 953d
00000040: 6692 ecbd 82b7 f6bd 60cb 6b3c 00ad dabb
00000050: e0ad ffbb 00a5 79bb 14ba 613d e8bd d53d
00000060: 6002 c9bb 7ab7 af3d f2bc 8e3d fac0 8b3d
00000070: 98d4 453d 4ad6 bb3d b80a 3abd a012 e6bc
00000080: 4022 30bc 7cfa ea3d 1e25 eabd 86f7 993d
00000090: d839 b13d d062 ecbc 3848 c0bd 560a ae3d
000000a0: f48b 73bd 0cbc fc3d de50 a73d 9e72 9bbd
000000b0: 30a0 043d d65f 88bd c099 13bd 280d a0bd
000000c0: 906b 2f3c c87d 4e3d dc67 42bd b61a 89bd
000000d0: 0adb cf3d 9200 cf3d ecdf 4f3d 6061 c9bb
000000e0: 1c2d 1c3d 1eed 84bd c0b0 f1bc 84bc a23d
000000f0: 78ec 6abd c054 d93b 06a3 b1bd ecfa 523d
00000100: 1011 dabd b0cb 12bd a62f bdbd e0e1 9c3b
00000110: 88f8 db3c 541e cf3d 003d 663b 80a2 90bd
00000120: 3872 8bbd f60f c9bd 4c10 d5bd ec4e 8dbd
00000130: b838 9f3d 904b b9bc b84e 9cbc e6be df3d
00000140: 22a2 dabd 945e e13d 4c20 793d 3cee fc3d
00000150: c6f3 923d 00e0 2c3b 2e7c a4bd 2065 0bbd
00000160: 60e6 6e3d 8a99 b13d 207d a13d 20f6 80bc
00000170: f4ce a83d e801 9a3d 5ace c4bd 50c8 2cbd
00000180: d8e0 983d bce2 e8bd 00cf 61ba 86bd e33d
00000190: e025 be3b a4f7 bebd 80c1 6dbc 0045 30ba
000001a0: 70cd b63c 680f 4a3d 7c30 d3bd dcb5 f0bd
000001b0: daff fcbd 6cfc 5ebd ced9 9d3d e4de 043d
000001c0: 708e b1bd 4072 fcbc 58d6 1dbd a082 66bd
000001d0: 8007 bd3b 30c1 e5bd 24ae eabd f4e9 7cbd
000001e0: 2881 f6bc bc85 72bd ce72 dabd c421 38bd
000001f0: 1626 873d 701c 08bd c83f e43c 9681 b13d
00000200: cc0c 16bd 408c 31bc aa03 853d b23c 91bd
00000210: 2431 4f3d c8e1 c73d da26 f43d e4c8 973d
00000220: aac9 b0bd 3c4f 29bd 641d 70bd 0055 ee3d
00000230: 84eb 33bd 2ea6 ca3d dacc f03d 98c0 d3bc
00000240: ec00 b4bd c21a 80bd c07a 39bd fe18 a03d
00000250: 28c5 d8bd c8dd 1d3d 9ad2 b63d 0cc9 e4bd
00000260: b6c9 883d 304d 803c 78bb 10bd d429 37bd
00000270: 8a82 813d 4c00 8b3d f079 e83d 14e7 583d
00000280: e016 ba3d 10bc fbbd a854 fd3c 0021 6e3a
00000290: 96ba 90bd 40b2 9f3d c43a 183d ac1a a7bd
000002a0: e4c8 453d 08fb fb3c 3832 1a3d 3000 10bc
000002b0: 60b7 67bd 0c49 8ebd a0cd 07bd e4b3 d5bd
000002c0: 1ab0 eb3d e8a0 e53d 5c98 bfbd bc4e 24bd
000002d0: 36c9 a9bd 20eb 3e3d 6850 7a3d b8de 3abd
000002e0: 00fe fe3a 161f e8bd a051 343c 4ec5 ba3d
000002f0: 2084 72bc 80e4 3b3d b0f9 7dbc aab5 ed3d
00000300: 0e96 ac3d 6404 14bd 34a5 dfbd dedd cbbd
00000310: 52fb fbbd 96cf d7bd ec9b 7f3d 26b7 9b3d
00000320: 7095 43bd 90ab c33d dc36 5bbd 6244 fa3d
00000330: e81b b93c f8a2 8dbc 5075 60bc 146a 133d
00000340: 8800 c23c ec72 513d e8d7 bd3d 3cf9 3b3d
00000350: c04f e83d dcd8 6c3d ec95 a8bd 6cf4 fabd
00000360: 00a4 90b9 2c90 58bd 9412 2c3d cc04 aa3d
00000370: 0006 b1bb 08a0 d83d 6c99 6abd 5c95 5ebd
00000380: 28fb 54bd 52c1 f93d 4076 d6bb 3289 9b3d
00000390: 4a8a ee3d c81a 4a3d d049 313d f876 923d
000003a0: cc86 963d 80be abbc 9403 13bd 9c72 09bd
000003b0: 185a 85bd 8694 d93d a23b bebd 349d 60bd
000003c0: d0d6 bdbd e085 f1bd 64a0 7c3d d8e8 d83d
000003d0: c20c 993d 30ad 51bd bac6 c7bd 68a7 ccbc
000003e0: ec1f 273d fcfa ecbd c893 be3c 688a ddbd
000003f0: e43e d23d 84a0 d1bd 7c95 3cbd 7017 e43d
-0.08927411 0.0014611632 0.059798375 0.021511123 -0.037973776 -0.012206569 -0.06469974 0.032911777
-0.10532178 0.0022856146 -0.09540361 -0.000902459 -0.06603834 -0.12485674 0.008480296 0.07319608
-0.11551361 -0.1204672 0.01439175 -0.0066734552 -0.00780271 -0.0038092732 0.0551091 0.10436612
-0.0061343163 0.08579917 0.06969632 0.06823917 0.04829845 0.09171732 -0.04542038 -0.028085053
-0.010750353 0.11473557 -0.11432861 0.075179145 0.08653611 -0.028855711 -0.09388775 0.08498065
-0.05945964 0.123405546 0.08169721 -0.07590221 0.03237933 -0.06658904 -0.0360353 -0.07815009
0.010706797 0.050412923 -0.04746233 -0.06694548 0.101492 0.10107531 0.050750658 -0.006145641
0.038128957 -0.06490539 -0.029503226 0.07946113 -0.05735442 0.0066324174 -0.086736724 0.05150883
-0.10647786 -0.035838783 -0.09237604 0.0047876686 0.026851907 0.101132065 0.0035131574 -0.070622444
-0.06808895 -0.098174974 -0.10403499 -0.06899819 0.0777449 -0.022619039 -0.019080505 0.10925083
-0.10675456 0.110043675 0.060821816 0.12350127 0.07175402 0.0026378632 -0.08031498 -0.034031987
0.05832517 0.086718634 0.07885194 -0.015742362 0.08242598 0.07519895 -0.09609671 -0.04218322
0.074647605 -0.11371371 -0.0008613914 0.11120133 0.005802855 -0.093245775 -0.014511466 -0.0006724149
0.022314757 0.0493311 -0.10311982 -0.11753437 -0.12353487 -0.054439947 0.077075586 0.032439128
-0.08669746 -0.030816197 -0.038534492 -0.056276917 0.0057687163 -0.11218488 -0.11458996 -0.061746553
-0.030090883 -0.05920957 -0.106664285 -0.044954076 0.06599061 -0.033230245 0.027862445 0.08667295
-0.036633298 -0.010836661 0.064948395 -0.07091655 0.050583974 0.09759861 0.11921473 0.07411364
-0.08632214 -0.04133533 -0.05862178 0.11637306 -0.043925777 0.098949775 0.11757822 -0.025848672
-0.08789238 -0.06255104 -0.04528308 0.07817267 -0.105844796 0.038541585 0.08926888 -0.11171159
0.06679098 0.015661806 -0.035335034 -0.044717625 0.063237265 0.06787166 0.11351383 0.05295475
0.09086394 -0.122917295 0.030924156 0.0009083897 -0.070668384 0.0779767 0.03716542 -0.08159384
0.048287287 0.03075935 0.03764555 -0.008789107 -0.056571364 -0.06947526 -0.033155084 -0.10434702
0.11508198 0.11212331 -0.09355232 -0.04011415 -0.08290331 0.04661095 0.061111838 -0.045622557
0.001945436 -0.11334054 0.011005789 0.09119664 -0.014802009 0.04587221 -0.015501425 0.11606915
0.08427058 -0.036137 -0.10920182 -0.09954427 -0.12303795 -0.10537641 0.062404558 0.07603292
-0.047749937 0.09554207 -0.053519115 0.12220074 0.022596315 -0.017289624 -0.0136998445 0.035989836
0.023681894 0.05113499 0.092696965 0.045891985 0.11343336 0.057824 -0.0823172 -0.12253651
-0.0002758801 -0.052871868 0.042009905 0.08301696 -0.0054023266 0.105773985 -0.05727522 -0.05434166
-0.051997334 0.12195076 -0.006544858 0.07594527 0.1164747 0.049341947 0.043283284 0.07151598
0.07349929 -0.02096486 -0.035892084 -0.033556566 -0.06511325 0.10624032 -0.09288718 -0.05483742
-0.09269488 -0.11793113 0.061676398 0.105912864 0.074731365 -0.051190555 -0.09754701 -0.02498217
0.040801927 -0.11571309 0.023263827 -0.108174145 0.10265902 -0.10235694 -0.046040997 0.11137283

actor.2.bias f4 [36]
00000000: 3045 24bd e0f8 0c3c 5044 e03d 76ad ab3d
00000010: 20ef c63c 544f cebd 6038 c7bb 38b3 9abc
00000020: 74d7 c6bd 80ed 673b de83 f83d 48e6 fbbc
00000030: e270 a33d 601b 83bc 48d2 cebd d81e d33d
00000040: 0c3c f53d 1448 083d 6858 483d 58e1 51bd
00000050: dacf c43d 8c13 fbbd 1eb4 f3bd c84b 1f3d
00000060: 201d b53d ae32 b13d 00e5 31ba 389c fcbc
00000070: ce6b b5bd b632 cebd 3899 acbc 60ec 21bc
00000080: e45c f43d 000a 7dba 64b2 37bd 0053 4f3d
-0.040105045 0.008604258 0.109505296 0.083826944 0.024283946 -0.100737244 -0.0060797185 -0.018884286
-0.09709063 0.0035389364 0.12134527 -0.030749455 0.07980515 -0.016004264 -0.10098702 0.10308617
0.11974344 0.033271864 0.048912436 -0.051240295 0.09609957 -0.12259588 -0.11899589 0.03889063
0.08843446 0.086522445 -0.0006786138 -0.03083621 -0.08858453 -0.10068266 -0.021069154 -0.009883016
0.1193178 -0.0009652674 -0.04484786 0.050616264

actor.4.weight f4 [1, 36]
00000000: 8071 613c 981f c03d 4021 dabc 5b6e 5bbd
00000010: 10b4 143e dbca 2a3d bea8 c63d 2076 12bd
00000020: 7bb7 6dbd f64f 19bd 2029 a43d 4680 0cbd
00000030: 3655 b63c b649 0dbe 5e5e bb3d d620 5c3d
00000040: 43eb adbd 5310 f23d d0e5 a0bd 7016 3bbd
00000050: 56b1 7aba aa24 183e 36b6 b2bd 0638 4abd
00000060: 762c 933d 46ba 0bbe d6f8 bebb 8311 d7bd
00000070: ab4e 1c3b f0ef 8d3d ee4c 203e 9b70 d7bd
00000080: c3bf 27be 7bfe a13d 7eff ff3d 069e 4abd
0.013759971 0.09381026 -0.026627183 -0.05357204 0.14521813 0.041697364 0.09700154 -0.035757184
-0.05803631 -0.037429772 0.080156565 -0.03430202 0.022257429 -0.1379765 0.091488585 0.053742252
-0.08492138 0.1181952 -0.07856333 -0.045675695 -0.0009563168 0.14857736 -0.0872616 -0.049369834
0.071862146 -0.13645276 -0.0058280034 -0.10501387 0.00238506 0.0693053 0.15654346 -0.10519525
-0.16381745 0.079098664 0.12499903 -0.04946711

critic.0.weight f4 [64, 7]
00000000: e551 82be ebb8 a93e 4d97 4d3e 2950 f93b
00000010: 6bd0 c0be 0d76 a63e 0800 93bb a2d2 6dbe
00000020: 86dd 89be c915 99be 052c 583d 2296 9ebe
00000030: b05b 6b3e ee64 513e e281 1abe e205 0dbe
00000040: 384e 47be a821 bb3e 1c2e 0fbe b578 88be
00000050: 73ec 09bd 29ec 913e eb10 9fbe 6538 8c3e
00000060: 114d a8be 57f9 9cbe 3562 81be 7206 8cbe
00000070: 0124 9bbe 1af1 88be 49e2 8f3e 56b9 73be
00000080: bd3d 653e e27f 943e 39a6 68bd b838 af3d
00000090: b797 0ebe 27fb 113e 49f4 893e ac7b 08be
000000a0: 5bd9 ad3e 2347 853c e5bb 66be b7a9 4cbd
000000b0: 9a15 45bd 1026 bc3e 22f4 fdbd b3ad b0be
000000c0: cad6 d13d e985 273e 8ac7 a83e a769 763e
000000d0: e030 3e3e 969b b8be 56c5 343b 2dd3 67bd
000000e0: 6c94 dabd 7ea5 fdbd 17da 3f3e ab70 20be
000000f0: f37f a13d 0955 cb3d 8ddc 93be 553b 703d
00000100: a95b fb3d 155a 963e c4aa aa3d bff0 853c
00000110: a895 be3d f9e3 5a3d 2fe9 36be 51dd 563e
00000120: fad0 b03e d0bd 563e 9385 52bd 9641 783d
00000130: 1d01 92be b169 473e 16c1 7fbe b550 a83b
00000140: 114d 81be 1c2a 7cbd 72da e7bd 0252 7f3d
00000150: d357 833e 47e9 50be 167f 013e 8428 36be
00000160: e71b 963e 0f67 01be 2a21 b8be 2f12 743e
00000170: 070d 593e 96f9 373d e6b7 9abc 40c4 923e
00000180: 5113 c1be a018 3ebd d597 6dbe 406e 4fbe
00000190: 1b66 39be a1df 983e e9ac 733e 25d6 c33e
000001a0: 677a d43d 3509 33be 5cfe 723e df69 a93e
000001b0: 48f8 a5be 26e2 15be b064 25be dc55 f1bd
000001c0: ea14 903d a878 c0be 4ce7 133d 1547 b3be
000001d0: 8d13 7dbd d0b5 b4be 6ed8 1e3e 34a2 6e3d
000001e0: d3e1 06bd 8dbd fabd 917e 933e 29cf 61bd
000001f0: b3a0 60be 901a 9ebd a7d4 a8be b22a b6be
00000200: 857e a7be 4f5e 9cbe 3ff7 bfbe 34d1 00be
00000210: d81a 933e 6ce6 44be 4897 0fbd 48b8 1f3d
00000220: d8e6 1bbe 1802 eabd 10c3 303d 26e4 b2be
00000230: 8c1e 53be 9bd5 f13d f716 54be 0a04 1b3d
00000240: 020d 96be f61b a2be 927e ac3e 6f06 93be
00000250: 3639 1d3e 4ce0 a93e 01b4 463e b469 e93d
00000260: 7923 773c 9d86 56bd bea4 af3e fe16 b23d
00000270: 1b23 80be 6991 d6bd d664 93be 84e5 a1be
00000280: a5d8 bdbe 3231 a63e 57a0 38be e7b0 5bbe
00000290: c4bd b6be acfd babe f3c5 a0be 0aea 2e3e
000002a0: 4810 a2be 4a90 193e 8384 6abe 4898 a53e
000002b0: 4653 bd3e 1825 c6be f0d2 463e d0f3 b13e
000002c0: d4ba 2dbe d05f 68be 1a78 ac3e 25e6 e53d
000002d0: 1fc6 cf3d 49e5 883e ffa0 883e 0ccc a3be
000002e0: 1285 ae3e 57a6 a4bc b28d b5be d93c 90bd
000002f0: 3ad7 38be adfa 633e 4504 053d ed26 753e
00000300: 8d69 753e 3e85 b7be 5f67 f8bd cf55 a1be
00000310: 80a8 debd f3f5 8a3e da79 a43e cc09 a8be
00000320: 58be ffbd e3a7 dd3d b0f7 9cbe dd0c 4c3c
00000330: 2454 9fbe cc60 c03e 25eb be3e 8685 8f3e
00000340: e638 a73e e0e3 9c3e 3fa7 5e3d e46a 543e
00000350: d274 77bd 9038 36be 6b65 be3e ba73 4bbc
00000360: a46d 9e3e 8ac9 c93b d04d 2b3e f8e9 26be
00000370: ef6e 4dbe 0a25 523e b1e8 80bd d5ac 0c3d
00000380: 7cec 1dbe e98a 833e 68ed b0bc f005 7f3e
00000390: d5f8 ec3d 599b a8bd 2a6e 4bbd 6630 07be
000003a0: cbcd f23d 2a13 06be 23e7 603e 1c4b ce3d
000003b0: a0a6 80be c6e7 533d 2d47 1e3e 4165 18be
000003c0: b207 ffbc 2840 89be 0577 9a3b 1a3f af3e
000003d0: 1883 47bc 90c3 95be b2d6 2e3d 45b0 89be
000003e0: 0279 613e 95ca b23e b1f8 6f3d d61e a73e
000003f0: 6dad ee3d 5c7e 003e 1439 8ebe a323 1bbe
-0.25453106 0.33148894 0.20077248 0.007608433 -0.3765901 0.3251194 -0.0044860877 -0.23224881
-0.2692682 -0.29899433 0.052776355 -0.30973917 0.22984195 0.20448658 -0.15088609 -0.13771775
-0.19463432 0.36549115 -0.13982433 -0.26654592 -0.03367276 0.28500488 -0.31067595 0.27386776
-0.32871297 -0.3065898 -0.2527024 -0.27348667 -0.30300906 -0.26746446 0.2810233 -0.23801169
0.22386833 0.29003817 -0.056799147 0.0855574 -0.13925062 0.14255963 0.26944187 -0.13328427
0.33954892 0.016269272 -0.22532614 -0.04996654 -0.048116304 0.3674779 -0.1240008 -0.34507522
0.10246046 0.16359676 0.32964736 0.2406374 0.18573332 -0.36056203 0.0027583442 -0.056597877
-0.106728405 -0.12385081 0.18735538 -0.1566798 0.078857325 0.099283285 -0.28879204 0.058650333
0.12273342 0.29365602 0.08333352 0.016350148 0.093058884 0.053440068 -0.1786239 0.20982863
0.34534436 0.20970845 -0.051396918 0.060609423 -0.28516474 0.19473912 -0.24976 0.005136574
-0.2525411 -0.061563596 -0.11320962 0.062334068 0.25652942 -0.20401488 0.12646136 -0.17788893
0.29318163 -0.1263697 -0.35962802 0.23835061 0.21196376 0.044915758 -0.018886518 0.28665352
-0.3771005 -0.046410203 -0.2320245 -0.20256901 -0.18105356 0.29858115 0.23796429 0.38249317
0.10374909 -0.17483981 0.23729843 0.33088586 -0.32415986 -0.1463705 -0.1615169 -0.117839545
0.07035239 -0.37592053 0.036109254 -0.3501517 -0.061786223 -0.35294962 0.15512249 0.058260158
-0.032930207 -0.12243185 0.288075 -0.055129204 -0.21936302 -0.0771991 -0.3297474 -0.3557945
-0.32713714 -0.30540702 -0.3749332 -0.12579805 0.28731418 -0.19228524 -0.035056382 0.038994104
-0.15224779 -0.114261806 0.043154776 -0.34939688 -0.20617121 0.1180832 -0.20711885 0.03784565
-0.293068 -0.31661958 0.33690315 -0.28715846 0.15353855 0.33178937 0.19404604 0.113971144
0.015084141 -0.05237447 0.34305376 0.08695792 -0.25026783 -0.104769535 -0.2878787 -0.3162042
-0.3707935 0.32459408 -0.18029915 -0.21454202 -0.35691655 -0.3652166 -0.31401023 0.17081466
-0.31653047 0.14996448 -0.22902112 0.32342744 0.36977595 -0.38700175 0.19416404 0.34756327
-0.169658 -0.226928 0.3368538 0.11225537 0.101452105 0.2673743 0.2668533 -0.31991613
0.340859 -0.020098848 -0.35459667 -0.07042856 -0.18050852 0.22263594 0.032474775 0.2394063
0.23966046 -0.35843843 -0.121290915 -0.3151078 -0.108719826 0.2714077 0.32124215 -0.32819974
-0.12487477 0.108230375 -0.3065772 0.012454239 -0.31118882 0.3757385 0.37288776 0.28031558
0.32660598 0.30642605 0.054358717 0.207439 -0.060414143 -0.17795014 0.3718675 -0.012417728
0.30943024 0.0061580585 0.16728902 -0.1630019 -0.20061849 0.20521942 -0.06294382 0.034344513
-0.15422243 0.25691918 -0.02159758 0.24904609 0.115708984 -0.08232755 -0.049665608 -0.13202056
0.11855658 -0.13093248 0.21963172 0.1007292 -0.25127125 0.05173471 0.15456839 -0.14882375
-0.0311316 -0.2680676 0.0047138953 0.3422783 -0.012177251 -0.29250765 0.04268522 -0.26892295
0.22018817 0.34920183 0.05858678 0.32640713 0.11654172 0.12548202 -0.27777922 -0.15150313

critic.0.bias f4 [64]
00000000: 3832 99be 8a62 5abe 49bd 5ebe a5cd afbe
00000010: 7a73 583d b895 7e3e d14f 59be afc8 29bb
00000020: 3071 a63c bc50 123e eb2c 4e3e cd38 dbbd
00000030: 20fa bb3c dc04 783e 1689 433e 0a6e cdbd
00000040: 508c bd3e f628 c33e 4b1e b1bd 508c 553e
00000050: 1d6c b53e 95d8 89be c438 09be 7812 e0bd
00000060: 7d5a 973e 8c7f 4dbd 96da 6d3d 1f0f 98bc
00000070: 060b 8bbd 3c69 adbe 8c5f 303e ad12 66be
00000080: acb2 b1bd bfac a7be 1acf 63bc bcb2 97be
00000090: 10e8 67bd c042 75be 2255 81bd 4335 c6bd
000000a0: 357d 8f3e fc9b e2bd aaf6 14be 56e5 e63d
000000b0: 2264 f63d 3eca 913e c872 c8bb e731 bbbc
000000c0: 9ccc 513e 7fcb afbe 816e 0ebe 9a9d fcbb
000000d0: b38f 84be 7041 3e3e f998 99be ef55 c1bd
000000e0: e6d8 03bd fc1b 603d 3f44 8fbe a1c6 82be
000000f0: 3609 55be 6c28 b3be 677b 7f3d f3fb 7b3e
-0.29921126 -0.21326652 -0.21751894 -0.34336582 0.052844502 0.248618 -0.21221854 -0.002590697
0.020317644 0.1428861 0.20134322 -0.10704193 0.022946417 0.24220604 0.19095263 -0.10030754
0.37021112 0.38117188 -0.08648356 0.20854306 0.35434046 -0.2692305 -0.1340056 -0.10941023
0.29561225 -0.050170466 0.058069788 -0.018561898 -0.06789212 -0.3386935 0.17223948 -0.22468062
-0.08676657 -0.32748982 -0.013904357 -0.2962855 -0.056617796 -0.23951244 -0.06315066 -0.096781276
0.28025213 -0.11064908 -0.1454722 0.11274211 0.120308176 0.2847461 -0.0061171986 -0.022850944
0.20488209 -0.34334943 -0.13909341 -0.0077092173 -0.25890884 0.1857965 -0.2999952 -0.09440219
-0.032189272 0.054714188 -0.27981755 -0.25542167 -0.20804295 -0.34991777 0.062373545 0.2460783

critic.2.weight f4 [36, 64]
00000000: be5c 8c3d e86c ed3d f892 13bd 569e f83d
00000010: 7b1d 6ebd a767 7bbd accc 64bd 0069 2dbb
00000020: 4967 8dbb 1ba5 f7bd 77da 3b3d fee5 ba3d
00000030: 4c74 70bd 43d7 2abc adcc dbbd 5aa8 1fbd
00000040: 9c6a cb3d f7ae ebbd 85bc 1a3d fd8a ae3c
00000050: 546a 12bd 90cd bd3d cb46 183d 281d d73c
00000060: 4225 eabc ac6b 9a3d 76fe 953d 92d0 e03d
00000070: 475a 69bd daeb 9dbd fa07 193d 2c47 883d
00000080: c015 ae3d 8865 8e3c 4602 d13d a0f4 943b
00000090: 691c a03d 6e81 cb3d a085 bbbc 3cb3 29bd
000000a0: 74fc d73d 701c e83d 9838 db3c 6d60 3fbc
000000b0: 2f92 8d3d 6779 91bd 592c 32bc 6409 113d
000000c0: e773 5cbd a8cf 12bd 8c57 cabd b443 6e3d
000000d0: 48ef a73d 2e24 ecbd 68d1 b23d 4481 c53d
000000e0: 3280 cb3d d6fa 343d cd50 cf3c 0040 d2bb
000000f0: 0674 8fbd 60d1 d7bc 3062 c73d 37d8 2e3d
00000100: 3814 32bd 2449 79bd ccd5 46bd e08c 3cbc
00000110: 34a3 66bd d0bc 963c 3426 c9bd fc4e c03d
00000120: 80d7 cebd ec28 c83d c0d4 97bb 80ee 5abd
00000130: 0002 38bd f873 9ebd 8054 ff3b 7a66 c43d
00000140: 3e7b eabd d0fc aabc f83e e9bd 9a04 f5bd
00000150: 2296 ef3d 00bc 913b 8032 463b e8ee f2bc
00000160: 9aef e1bd fe97 953d 3004 15bc 6007 ca3b
00000170: b6b6 a9bd 308f 6bbd b85e ecbd a032 78bc
00000180: 2ac6 f83d 4059 aebc 5051 3fbd 60f0 da3d
00000190: f4eb 7f3d 68a9 91bd c49b 8d3d cc82 403d
000001a0: f8a3 de3d 78f3 f23d 5a89 dc3d aca3 683d
000001b0: 347d 6abd 3487 92bd fc58 01bd 98b1 f0bd
000001c0: 0074 133b 40c6 ea3d 2045 713c 103e 20bc
000001d0: 303b a8bd 96a6 9cbd 4c7d dabd 24fd 0bbd
000001e0: 1ccf 943d ee6e db3d c055 503c 6410 c93d
000001f0: c090 aebd 7a9c e9bd d61b ba3d 9031 d63c
00000200: f83b 91bd 126d c7bd 6cfd 993b 28ff 19bd
00000210: d7aa 04be 3e76 893c 53af c0bd c427 92ba
00000220: 83fe f9bc 620d a1bd 7841 c43d 1e97 ec3d
00000230: 02ec ec3d 7966 9fbd 491e 743d 3e78 cabd
00000240: 0236 993d 8556 8b3d b010 55bc 4658 08be
00000250: 66df 31bd b485 3ebd 0cdd 373d 600c b4bd
00000260: 2d08 793c 9236 773d 001a 5a3d 8f6b a23d
00000270: 881e 1c3d 7882 ddbd 2f99 a3bd bc73 c83d
00000280: 7809 acbd 0451 3b3d 8d95 28bd 5484 d63d
00000290: deb5 f7bd 2f94 6c3d ea09 3cbd 683a f4bc
000002a0: 1b78 d63c 5ccf c2bc c0fe 31bc a16d ffbd
000002b0: 7abb 8ebd 605b 0cbe ea84 ac3d 52cd af3d
000002c0: 8d9a 733d e49d fc3d c80a 94bc 91ba ed3c
000002d0: d408 6dbd 14ad 733d a6af bfbd 8830 c0bc
000002e0: 4495 a33d 70ef d0bd 8e64 b2bd 0018 dc3a
000002f0: 849b 3f3d c4d0 4cbd ff4f d83c 8980 fdbd
00000300: 8db2 223d b0a9 db3d a6bc 09bd ec66 8c3d
00000310: 06ba 79bd be7b 2cbc 98ae 4b3c e12b b23d
00000320: 0ba2 f03d e41d d2bd dbf8 813d 756d da3c
00000330: e8c1 a8bd dba2 fb3b f015 fb3d 51d9 b6bd
00000340: 6e55 d63d 0d05 41bd 0e2f a43d 3369 ae3d
00000350: 9647 ef3d 70b3 f9bd e8ac 903d d7cd 963d
00000360: e183 d2bc e169 823d 2d37 aabd 3650 58bd
00000370: 5ab3 2ebd 5164 7d3d 88f6 a33d 9445 f8bd
00000380: 7cb0 a8bd 8668 9fbd 6d34 af3d c68b c03d
00000390: 6314 c8bd e7dc ba3d c4dd 873d 2dbf 0b3d
000003a0: ea93 cf3d 02b0 593d 6a73 c6bd 9017 35bd
000003b0: d9d0 d13d 0f79 bcbd 6f5b dcbd 95ed 08be
000003c0: c1d6 8d3d 00c2 3c3b 68ab ce3d a3e6 6ebd
000003d0: 2309 4dbd cd01 073e 9a11 d33d 1c33 1dbc
000003e0: 2750 be3d e18d e5bd 676f 2e3c def9 97bd
000003f0: 8375 cebd b828 a4bc b4bd 4b3d 1411 a73d
0.06853627 0.11593038 -0.036028832 0.12139575 -0.058133584 -0.061378147 -0.055859253 -0.002646029
-0.004315291 -0.12092038 0.04586264 0.09125899 -0.05870466 -0.010427299 -0.10732398 -0.038978912
0.099324435 -0.11507981 0.037777442 0.02130651 -0.035745934 0.092677236 0.03717689 0.02625902
-0.028582219 0.07540068 0.07323925 0.10977282 -0.05697086 -0.07711001 0.037361123 0.066542
0.08500242 0.017382398 0.10205512 0.004545763 0.07817919 0.09936796 -0.022890866 -0.041430697
0.105461985 0.11333549 0.026760384 -0.011680705 0.06912648 -0.07103234 -0.010874831 0.035409346
-0.05382147 -0.035842568 -0.098799795 0.058170035 0.08199936 -0.11530338 0.08731347 0.09643796
0.09936561 0.04418453 0.025307084 -0.006416321 -0.070045516 -0.026344955 0.09735525 0.042686667
-0.043476313 -0.060860768 -0.048543736 -0.011508197 -0.056307986 0.01840058 -0.0982174 0.09390065
-0.10099697 0.0977343 -0.004633516 -0.053450108 -0.044923782 -0.07736963 0.0077920556 0.09589858
-0.11449288 -0.020872504 -0.113889635 -0.11963768 0.116985574 0.00444746 0.0030242503 -0.029654935
-0.110320285 0.07304381 -0.009095237 0.00616543 -0.082868025 -0.0575096 -0.11541504 -0.015148789
0.12147172 -0.021282792 -0.046708405 0.10690379 0.06248088 -0.0711239 0.069144756 0.046999738
0.10871118 0.11862844 0.10768385 0.056796715 -0.05724831 -0.07154694 -0.031579003 -0.11752623
0.0022499561 0.114635944 0.014725953 -0.009780422 -0.08214414 -0.07648961 -0.1066843 -0.03417696
0.072660655 0.107145175 0.012715757 0.098175794 -0.085237026 -0.11406799 0.090873405 0.02614668
-0.07091516 -0.097376004 0.0046993997 -0.03759685 -0.12955795 0.016780015 -0.094084404 -0.0011150767
-0.030516868 -0.07863881 0.095828 0.11552261 0.115684524 -0.07783217 0.059599195 -0.098862156
0.07481004 0.06803612 -0.013004467 -0.13314924 -0.04342594 -0.046514228 0.04488854 -0.08791423
0.015199703 0.060354777 0.05324745 0.079306714 0.038115054 -0.108159006 -0.07988202 0.097876996
-0.084002435 0.04573156 -0.041158248 0.10474458 -0.12095235 0.057758506 -0.045907892 -0.029813007
0.026180318 -0.023780517 -0.01086396 -0.12472082 -0.06969352 -0.13706732 0.08423789 0.085840836
0.059473563 0.12334803 -0.018071547 0.029019626 -0.057869747 0.059491232 -0.09359674 -0.023460642
0.079874545 -0.10201919 -0.087105855 0.001679182 0.04677917 -0.050003782 0.026405333 -0.12378032
0.03972106 0.10725725 -0.033627175 0.06855568 -0.06096842 -0.010527549 0.012431763 0.086997755
0.11749657 -0.102596074 0.063462935 0.026663521 -0.0824011 0.007679326 0.122600436 -0.089281686
0.10465513 -0.047123957 0.080167875 0.08516159 0.11683576 -0.12192428 0.07064229 0.073634796
-0.02569765 0.06367851 -0.08311305 -0.05281087 -0.04265151 0.061863247 0.080060065 -0.12122646
-0.08236787 -0.07783608 0.08554921 0.0940166 -0.097695135 0.09124165 0.06634095 0.034117866
0.10135634 0.05314637 -0.09689982 -0.044211924 0.10244913 -0.092027776 -0.10759627 -0.1337188
0.06925727 0.0028802156 0.10091287 -0.05832542 -0.05005754 0.1318428 0.103060916 -0.009594705
0.092926316 -0.11208702 0.010646678 -0.07420705 -0.10081007 -0.020038947 0.049741462 0.08157554

critic.2.bias f4 [36]
00000000: 7235 aabd ee17 a0bd 7cdc fabc b254 0dbd
00000010: cb63 4f3d daa1 a8bc 3a4a b63c df9b 9dbb
00000020: a891 3bbd 900a 8f3d 57fb c13d d2c2 c9bc
00000030: ef2a 053e e808 c5bc ba0a ea3c bf5c 98bd
00000040: 5d20 59bd c017 a4bd 5b55 95bd 1c62 86bd
00000050: c255 bcbd 68fc 0ebd be33 9f3d fe8d abbd
00000060: fb2b 45bd 0c92 22bd 1b48 14bd 70be 233d
00000070: 38a5 7d3d 1877 8fbd d61c 2ebd b244 fdbd
00000080: c51b d23d 4848 88bd e398 063e 365e f2bd
-0.08310975 -0.07817064 -0.030622713 -0.0345046 0.05063228 -0.02058499 0.02225219 -0.004809841
-0.045793205 0.069844365 0.094717674 -0.02462903 0.13004659 -0.024052098 0.028569568 -0.07439565
-0.05300938 -0.080123425 -0.07291671 -0.06561682 -0.091960445 -0.034908682 0.07773541 -0.08376692
-0.048137646 -0.039690062 -0.036201578 0.039976537 0.061925143 -0.07005137 -0.04250797 -0.12366618
0.10259203 -0.066544116 0.13144259 -0.118343756

critic.4.weight f4 [1, 36]
00000000: de7d 063e 00f0 90bd 5fbf 173d f4f8 c43d
00000010: d482 573d c033 013e cc4a d3bd 5575 4cbd
00000020: 5916 0ebe 2f66 8b3c 603a c73d 981c f23d
00000030: 7c65 383e ac6a df3d d0ee dfbd c385 313c
00000040: aead 1dbe 1b86 11be a57a 12be 6bac 58bd
00000050: cb0d f93d bb85 6cbd 7f17 82bd 1b47 86bd
00000060: f327 9ebd 8b6b 65bd 4188 cfbc 34b4 5cbd
00000070: 3d05 f63d 5fd7 14be 3b77 0abe e670 06be
00000080: 895e 243e 007e 37bb e53a ef3c f6dd e53d
0.13133952 -0.07077026 0.03704774 0.096177965 0.052615 0.12617397 -0.10317001 -0.049916584
-0.13875712 0.017016498 0.09727931 0.1182186 0.18007463 0.10909018 -0.10934222 0.010835114
-0.15398285 -0.14211313 -0.14304598 -0.052898806 0.12160834 -0.057744723 -0.06352138 -0.06556531
-0.077224635 -0.056010764 -0.025333526 -0.053882793 0.12012718 -0.14535283 -0.13522045 -0.13129005
0.16051687 -0.0027998686 0.029202888 0.11223976
