AGTS_Models/cartpole/PPO_cartpole_0_0.pth (torch, 27714 bytes, 10 tensors)

actor.0.weight f4 [64, 7]
0.3392409 0.25136626 -0.05743409 -0.07648396 0.079226345 0.1297243 0.33903834 -0.30085042
0.22252798 0.25489458 -0.13623784 -0.14466366 0.33471042 0.14509034 -0.2887439 0.21333277
-0.34920368 -0.15597758 -0.028676359 0.075163655 -0.31311405 0.2266709 -0.2362715 -0.29421806
-0.038239725 0.22443068 0.21124975 0.09405389 -0.051408995 -0.3278619 -0.21168616 0.30828086
0.24560913 -0.2505686 -0.32004228 0.37761745 0.2012063 -0.13551864 -0.07988719 -0.2675774
-0.055352055 0.08911371 -0.26215374 0.250344 0.07077894 -0.050153304 -0.36188093 0.17269129
-0.035147518 -0.06158315 0.010682174 0.34687874 -0.16492236 0.21561027 -0.16784538 -0.09637666
-0.3156262 0.22425897 0.010566964 -0.24133846 -0.3181607 0.25919002 0.30528623 -0.1638851
0.21961154 0.1465418 0.2705937 -0.31332016 -0.03768724 0.0011715238 0.07045589 -0.046261154
0.0027518938 0.18731648 -0.3495631 -0.05228427 0.004882949 -0.34109437 0.22227372 -0.028740654
0.09236511 0.063393086 -0.018242583 -0.19109891 -0.26774576 0.25485164 -0.20869863 0.370493
0.32681856 0.13949046 0.2555493 -0.18676111 0.093871854 0.13261193 -0.33193368 0.17488402
-0.25763544 -0.052663557 0.25551492 -0.15057291 -0.01600213 0.019690394 0.23786908 -0.07309324
0.28897613 0.2793528 -0.06985014 0.09325787 0.101520486 -0.37723237 -0.23497607 0.18658309
0.29140183 0.033765037 -0.2317482 -0.11046166 0.3424034 -0.21141785 0.20288795 0.21511671
0.124213696 -0.33029532 -0.22384027 -0.12539946 0.14054227 -0.35376325 0.367772 -0.2852159
0.04181341 0.23465464 -0.31913263 -0.1695711 0.21003285 0.03795136 0.2343883 -0.04972202
0.17721865 0.074630134 -0.015881918 -0.33080307 0.082737535 0.22037503 0.017288368 -0.27924123
0.037276726 -0.038854618 0.3619844 0.29007292 0.10140599 -0.19186267 0.22746906 0.346526
0.16887718 -0.054255597 0.3595399 -0.12361556 0.11788176 0.07382979 0.27691925 -0.03121707
0.21762885 0.08849301 0.3175638 -0.034873977 -0.05316725 -0.06617584 0.09027528 0.17282493
0.25187317 0.24236737 -0.19582267 0.26725283 -0.0010400028 0.16438438 -0.37515315 0.20997505
-0.3229571 0.3539043 -0.14174622 0.34006563 0.37625608 0.25589585 -0.012126157 0.12721024
-0.04235049 0.10597373 -0.31171063 -0.1799595 0.33141652 0.32726043 -0.3717085 -0.16558789
-0.36240736 0.0051822616 -0.24289067 -0.06774342 -0.32675374 -0.07450573 -0.36413223 -0.0033546647
0.22116879 0.114968434 -0.22063145 -0.13479386 0.13695186 -0.21570876 0.010920705 0.068550386
0.059830528 -0.006000179 -0.3770755 0.11098266 -0.09522974 -0.27719036 0.28223574 -0.14643335
0.023812063 0.23340948 0.011250116 -0.012415602 0.11453931 -0.11664626 -0.0174631 0.2894893
0.30399805 -0.1455479 0.25989166 -0.18691674 0.35765252 -0.29798225 -0.3507872 0.1905431
-0.0143690435 -0.3497941 -0.15806317 0.04981272 -0.06933956 0.2972215 0.025735226 -0.33874193
-0.30768713 0.007876077 0.22229283 -0.22931746 0.23159306 -0.16583696 -0.18991037 -0.06858639
-0.10898889 -0.3634716 0.10274986 0.09176612 -0.37300673 -0.23722607 0.22179016 0.34645706
00000000: fcb0 ad3e 14b3 803e 0240 6bbd 9fa3 9cbd
00000010: 6c41 a23d 72d6 043e 6f96 ad3e 1109 9abe
00000020: 60de 633e 8b81 823e ef81 0bbe b622 14be
00000030: 2a5f ab3e 9092 143e 3ed6 93be e873 5a3e
00000040: d3ca b2be 96b8 1fbe afea eabc 67ef 993d
00000050: 7c50 a0be 6b1c 683e 28f1 71be c0a3 96be
00000060: 42a1 1cbd 28d1 653e db51 583e 539f c03d
00000070: 3d92 52bd 84dd a7be 42c4 58be fdd6 9d3e
00000080: f680 7b3e 874a 80be 95dc a3be 1357 c13e
00000090: 0609 4e3e 66c5 0abe e59b a3bd e8ff 88be
000000a0: d6b8 62bd 4081 b63d 0439 86be 172d 803e
000000b0: 8df4 903d 8d6d 4dbd 7548 b9be fcd5 303e
000000c0: d8f6 0fbd 9d3e 7cbd 4904 2f3c 179a b13e
000000d0: 68e1 28be f0c8 5c3e a9df 2bbe 2061 c5bd
000000e0: c299 a1be 25a4 653e 0f21 2d3c 6e21 77be
000000f0: f6e5 a2be 8eb4 843e 7a4e 9c3e 7fd1 27be
00000100: d9e1 603e 0e0f 163e 428b 8a3e 806b a0be
00000110: ef5d 1abd d18d 993a 2d4b 903d 567c 3dbd
00000120: 1e59 343b e4cf 3f3e eff9 b2be 0828 56bd
00000130: 2501 a03b eca3 aebe b99b 633e 8571 ebbc
00000140: eb29 bd3d 3cd4 813d 7871 95bc 6faf 43be
00000150: f915 89be ea7b 823e 18b5 55be 42b1 bd3e
00000160: c354 a73e 96d6 0e3e 5cd7 823e 4e3e 3fbe
00000170: e33f c03d 6ccb 073e 36f3 a9be cc14 333e
00000180: cbe8 83be beb5 57bd dad2 823e c92f 1abe
00000190: e616 83bc c04d a13c f493 733e e9b1 95bd
000001a0: aef4 933e 5507 8f3e 970d 8fbd fbfd be3d
000001b0: f9e9 cf3d 9a24 c1be 919d 70be a30f 3f3e
000001c0: 9f32 953e 354d 0a3d 664f 6dbe b939 e2bd
000001d0: 804f af3e ec7d 58be dcc1 4f3e 8e47 5c3e
000001e0: c063 fe3d 781c a9be 6236 65be b768 00be
000001f0: 50ea 0f3e 7520 b5be 9d4c bc3e d207 92be
00000200: 8a44 2b3d 4e49 703e 5a65 a3be 0ca4 2dbe
00000210: da12 573e e372 1b3d 7d03 703e 51a9 4bbd
00000220: ce78 353e afd7 983d cc1a 82bc 055f a9be
00000230: 4c72 a93d fea9 613e 56a0 8d3c b5f8 8ebe
00000240: 7baf 183d 0526 1fbd 0556 b93e 7084 943e
00000250: f2ad cf3d a677 44be a6ed 683e db6b b13e
00000260: 24ee 2c3e 1e3b 5ebd 9d15 b83e 282a fdbd
00000270: fe6b f13d 1334 973d 5cc8 8d3e f1ba ffbc
00000280: 19da 5e3e d33b b53d b997 a23e 04d8 0ebd
00000290: e7c5 59bd 3387 87bd 3fe2 b83d 05f9 303e
000002a0: 85f5 803e 272f 783e bd85 48be 5dd5 883e
000002b0: b450 88ba 6154 283e 1314 c0be b303 573e
000002c0: a25a a5be f232 b53e ec25 11be 151d ae3e
000002d0: a3a4 c03e c804 833e caac 46bc 6743 023e
000002e0: b577 2dbd c108 d93d 8998 9fbe 4e47 38be
000002f0: 6daf a93e ae8e a73e 9450 bebe df8f 29be
00000300: 758d b9be f6cf a93b 55b8 78be 10bd 8abd
00000310: 444c a7be 7696 98bd 8a6f babe efd9 5bbb
00000320: 127a 623e 9274 eb3d 36ed 61be 6707 0abe
00000330: 1c3d 0c3e c2e2 5cbe c2ec 323c 2564 8c3d
00000340: db10 753d 269d c4bb 0a10 c1be e04a e33d
00000350: cf07 c3bd e5eb 8dbe 3481 903e a0f2 15be
00000360: 8411 c33c e502 6f3e 6852 383c cf6a 4bbc
00000370: 9693 ea3d 3ce4 eebd c60e 8fbc f137 943e
00000380: a2a5 9b3e 820a 15be 8510 853e 1a67 3fbe
00000390: 3b1e b73e 2191 98be 619a b3be bb1d 433e
000003a0: 236c 6bbc 3618 b3be 50db 21be 6c08 4c3d
000003b0: e601 8ebd 6b2d 983e aed2 d23c 956f adbe
000003c0: 2b89 9dbe a90a 013c bba0 633e 32d2 6abe
000003d0: bb26 6d3e 2ad1 29be dd77 42be 0577 8cbd
000003e0: 9135 dfbd f318 babe 856e d23d e0ef bb3d
000003f0: bdfa bebe 64eb 72be f61c 633e d262 b13e

actor.0.bias f4 [64]
-0.01783225 0.21079935 0.11269189 0.37376335 0.2237566 0.27356473 -0.034099944 0.28533095
-0.3232333 -0.36142266 -0.30598858 0.24256581 0.07221842 -0.038360298 0.12461542 -0.068815865
0.024882795 -0.095968984 -0.3073815 0.17158307 0.10656298 0.28992513 -0.1104212 0.11098554
0.04948678 -0.19375488 -0.23597692 0.25189623 -0.29681984 0.03827694 -0.3559245 -0.2258183
-0.24838977 0.21624638 0.1072542 -0.23103228 -0.21467312 -0.32851404 -0.20000927 -0.14502542
-0.07212939 -0.33675504 -0.01524211 0.053313952 -0.3565028 -0.037579507 -0.2617389 0.37595466
0.05429971 -0.2375151 -0.22503193 -0.2930119 -0.3131639 0.35840613 0.26148412 -0.23846315
-0.106685445 0.26438713 0.24146909 -0.13138914 0.21114373 0.049135648 -0.11074295 0.28678188
00000000: f014 92bc c9db 573e 01cb e63d e95d bf3e
00000010: 7320 653e ad10 8c3e 62ac 0bbd e616 923e
00000020: d67e a5be 640c b9be 89aa 9cbe 2c63 783e
00000030: 40e7 933d b01f 1dbd 5f36 ff3d 55ef 8cbd
00000040: 01d7 cb3c 638b c4bd 1c61 9dbe 79b3 2f3e
00000050: b13d da3d 1171 943e 8324 e2bd 634c e33d
00000060: a6b2 4a3d ae67 46be efa3 71be 8bf8 803e
00000070: c5f8 97be 48c8 1c3d bc3b b6be ea3c 67be
00000080: e359 7ebe b16f 5d3e 17a8 db3d ba93 6cbe
00000090: 45d3 5bbe fe32 a8be 3bcf 4cbe 8b81 14be
000000a0: 93b8 93bd 286b acbe 0bba 79bc bb5f 5a3d
000000b0: 8987 b6be f8ec 19bd a402 86be 217d c03e
000000c0: 5f69 5e3d 2937 73be c56e 66be a805 96be
000000d0: 0557 a0be 0281 b73e 3fe1 853e af2f 74be
000000e0: e67d dabd c05d 873e ac43 773e e08a 06be
000000f0: 1036 583e 7642 493d 33cd e2bd 13d5 923e

actor.2.weight f4 [36, 64]
-0.08927411 0.0014611632 0.059798375 0.021511123 -0.037973776 -0.012206569 -0.06469974 0.032911777
-0.10532178 0.0022856146 -0.09540361 -0.000902459 -0.06603834 -0.12485674 0.008480296 0.07319608
-0.11551361 -0.1204672 0.01439175 -0.0066734552 -0.00780271 -0.0038092732 0.0551091 0.10436612
-0.0061343163 0.08579917 0.06969632 0.06823917 0.04829845 0.09171732 -0.04542038 -0.028085053
-0.010750353 0.11473557 -0.11432861 0.075179145 0.08653611 -0.028855711 -0.09388775 0.08498065
-0.05945964 0.123405546 0.08169721 -0.07590221 0.03237933 -0.06658904 -0.0360353 -0.07815009
0.010706797 0.050412923 -0.04746233 -0.06694548 0.101492 0.10107531 0.050750658 -0.006145641
0.038128957 -0.06490539 -0.029503226 0.07946113 -0.05735442 0.0066324174 -0.086736724 0.05150883
-0.10647786 -0.035838783 -0.09237604 0.0047876686 0.026851907 0.101132065 0.0035131574 -0.070622444
-0.06808895 -0.098174974 -0.10403499 -0.06899819 0.0777449 -0.022619039 -0.019080505 0.10925083
-0.10675456 0.110043675 0.060821816 0.12350127 0.07175402 0.0026378632 -0.08031498 -0.034031987
0.05832517 0.086718634 0.07885194 -0.015742362 0.08242598 0.07519895 -0.09609671 -0.04218322
0.074647605 -0.11371371 -0.0008613914 0.11120133 0.005802855 -0.093245775 -0.014511466 -0.0006724149
0.022314757 0.0493311 -0.10311982 -0.11753437 -0.12353487 -0.054439947 0.077075586 0.032439128
-0.08669746 -0.030816197 -0.038534492 -0.056276917 0.0057687163 -0.11218488 -0.11458996 -0.061746553
-0.030090883 -0.05920957 -0.106664285 -0.044954076 0.06599061 -0.033230245 0.027862445 0.08667295
-0.036633298 -0.010836661 0.064948395 -0.07091655 0.050583974 0.09759861 0.11921473 0.07411364
-0.08632214 -0.04133533 -0.05862178 0.11637306 -0.043925777 0.098949775 0.11757822 -0.025848672
-0.08789238 -0.06255104 -0.04528308 0.07817267 -0.105844796 0.038541585 0.08926888 -0.11171159
0.06679098 0.015661806 -0.035335034 -0.044717625 0.063237265 0.06787166 0.11351383 0.05295475
0.09086394 -0.122917295 0.030924156 0.0009083897 -0.070668384 0.0779767 0.03716542 -0.08159384
0.048287287 0.03075935 0.03764555 -0.008789107 -0.056571364 -0.06947526 -0.033155084 -0.10434702
0.11508198 0.11212331 -0.09355232 -0.04011415 -0.08290331 0.04661095 0.061111838 -0.045622557
0.001945436 -0.11334054 0.011005789 0.09119664 -0.014802009 0.04587221 -0.015501425 0.11606915
0.08427058 -0.036137 -0.10920182 -0.09954427 -0.12303795 -0.10537641 0.062404558 0.07603292
-0.047749937 0.09554207 -0.053519115 0.12220074 0.022596315 -0.017289624 -0.0136998445 0.035989836
0.023681894 0.05113499 0.092696965 0.045891985 0.11343336 0.057824 -0.0823172 -0.12253651
-0.0002758801 -0.052871868 0.042009905 0.08301696 -0.0054023266 0.105773985 -0.05727522 -0.05434166
-0.051997334 0.12195076 -0.006544858 0.07594527 0.1164747 0.049341947 0.043283284 0.07151598
0.07349929 -0.02096486 -0.035892084 -0.033556566 -0.06511325 0.10624032 -0.09288718 -0.05483742
-0.09269488 -0.11793113 0.061676398 0.105912864 0.074731365 -0.051190555 -0.09754701 -0.02498217
0.040801927 -0.11571309 0.023263827 -0.108174145 0.10265902 -0.10235694 -0.046040997 0.11137283
00000000: 58d5 b6bd 8084 bf3a 24ef 743d 1838 b03c
00000010: 648a 1bbd 10fe 47bc 4c81 84bd 80ce 063d
00000020: f2b2 d7bd 40ca 153b f862 c3bd 0093 6cba
00000030: 1c3f 87bd e4b4 ffbd f0f0 0a3c d4e7 953d
00000040: 6692 ecbd 82b7 f6bd 60cb 6b3c 00ad dabb
00000050: e0ad ffbb 00a5 79bb 14ba 613d e8bd d53d
00000060: 6002 c9bb 7ab7 af3d f2bc 8e3d fac0 8b3d
00000070: 98d4 453d 4ad6 bb3d b80a 3abd a012 e6bc
00000080: 4022 30bc 7cfa ea3d 1e25 eabd 86f7 993d
00000090: d839 b13d d062 ecbc 3848 c0bd 560a ae3d
000000a0: f48b 73bd 0cbc fc3d de50 a73d 9e72 9bbd
000000b0: 30a0 043d d65f 88bd c099 13bd 280d a0bd
000000c0: 906b 2f3c c87d 4e3d dc67 42bd b61a 89bd
000000d0: 0adb cf3d 9200 cf3d ecdf 4f3d 6061 c9bb
000000e0: 1c2d 1c3d 1eed 84bd c0b0 f1bc 84bc a23d
000000f0: 78ec 6abd c054 d93b 06a3 b1bd ecfa 523d
00000100: 1011 dabd b0cb 12bd a62f bdbd e0e1 9c3b
00000110: 88f8 db3c 541e cf3d 003d 663b 80a2 90bd
00000120: 3872 8bbd f60f c9bd 4c10 d5bd ec4e 8dbd
00000130: b838 9f3d 904b b9bc b84e 9cbc e6be df3d
00000140: 22a2 dabd 945e e13d 4c20 793d 3cee fc3d
00000150: c6f3 923d 00e0 2c3b 2e7c a4bd 2065 0bbd
00000160: 60e6 6e3d 8a99 b13d 207d a13d 20f6 80bc
00000170: f4ce a83d e801 9a3d 5ace c4bd 50c8 2cbd
00000180: d8e0 983d bce2 e8bd 00cf 61ba 86bd e33d
00000190: e025 be3b a4f7 bebd 80c1 6dbc 0045 30ba
000001a0: 70cd b63c 680f 4a3d 7c30 d3bd dcb5 f0bd
000001b0: daff fcbd 6cfc 5ebd ced9 9d3d e4de 043d
000001c0: 708e b1bd 4072 fcbc 58d6 1dbd a082 66bd
000001d0: 8007 bd3b 30c1 e5bd 24ae eabd f4e9 7cbd
000001e0: 2881 f6bc bc85 72bd ce72 dabd c421 38bd
000001f0: 1626 873d 701c 08bd c83f e43c 9681 b13d
00000200: cc0c 16bd 408c 31bc aa03 853d b23c 91bd
00000210: 2431 4f3d c8e1 c73d da26 f43d e4c8 973d
00000220: aac9 b0bd 3c4f 29bd 641d 70bd 0055 ee3d
00000230: 84eb 33bd 2ea6 ca3d dacc f03d 98c0 d3bc
00000240: ec00 b4bd c21a 80bd c07a 39bd fe18 a03d
00000250: 28c5 d8bd c8dd 1d3d 9ad2 b63d 0cc9 e4bd
00000260: b6c9 883d 304d 803c 78bb 10bd d429 37bd
00000270: 8a82 813d 4c00 8b3d f079 e83d 14e7 583d
00000280: e016 ba3d 10bc fbbd a854 fd3c 0021 6e3a
00000290: 96ba 90bd 40b2 9f3d c43a 183d ac1a a7bd
000002a0: e4c8 453d 08fb fb3c 3832 1a3d 3000 10bc
000002b0: 60b7 67bd 0c49 8ebd a0cd 07bd e4b3 d5bd
000002c0: 1ab0 eb3d e8a0 e53d 5c98 bfbd bc4e 24bd
000002d0: 36c9 a9bd 20eb 3e3d 6850 7a3d b8de 3abd
000002e0: 00fe fe3a 161f e8bd a051 343c 4ec5 ba3d
000002f0: 2084 72bc 80e4 3b3d b0f9 7dbc aab5 ed3d
00000300: 0e96 ac3d 6404 14bd 34a5 dfbd dedd cbbd
00000310: 52fb fbbd 96cf d7bd ec9b 7f3d 26b7 9b3d
00000320: 7095 43bd 90ab c33d dc36 5bbd 6244 fa3d
00000330: e81b b93c f8a2 8dbc 5075 60bc 146a 133d
00000340: 8800 c23c ec72 513d e8d7 bd3d 3cf9 3b3d
00000350: c04f e83d dcd8 6c3d ec95 a8bd 6cf4 fabd
00000360: 00a4 90b9 2c90 58bd 9412 2c3d cc04 aa3d
00000370: 0006 b1bb 08a0 d83d 6c99 6abd 5c95 5ebd
00000380: 28fb 54bd 52c1 f93d 4076 d6bb 3289 9b3d
00000390: 4a8a ee3d c81a 4a3d d049 313d f876 923d
000003a0: cc86 963d 80be abbc 9403 13bd 9c72 09bd
000003b0: 185a 85bd 8694 d93d a23b bebd 349d 60bd
000003c0: d0d6 bdbd e085 f1bd 64a0 7c3d d8e8 d83d
000003d0: c20c 993d 30ad 51bd bac6 c7bd 68a7 ccbc
000003e0: ec1f 273d fcfa ecbd c893 be3c 688a ddbd
000003f0: e43e d23d 84a0 d1bd 7c95 3cbd 7017 e43d

actor.2.bias f4 [36]
-0.040105045 0.008604258 0.109505296 0.083826944 0.024283946 -0.100737244 -0.0060797185 -0.018884286
-0.09709063 0.0035389364 0.12134527 -0.030749455 0.07980515 -0.016004264 -0.10098702 0.10308617
0.11974344 0.033271864 0.048912436 -0.051240295 0.09609957 -0.12259588 -0.11899589 0.03889063
0.08843446 0.086522445 -0.0006786138 -0.03083621 -0.08858453 -0.10068266 -0.021069154 -0.009883016
0.1193178 -0.0009652674 -0.04484786 0.050616264
00000000: 3045 24bd e0f8 0c3c 5044 e03d 76ad ab3d
00000010: 20ef c63c 544f cebd 6038 c7bb 38b3 9abc
00000020: 74d7 c6bd 80ed 673b de83 f83d 48e6 fbbc
00000030: e270 a33d 601b 83bc 48d2 cebd d81e d33d
00000040: 0c3c f53d 1448 083d 6858 483d 58e1 51bd
00000050: dacf c43d 8c13 fbbd 1eb4 f3bd c84b 1f3d
00000060: 201d b53d ae32 b13d 00e5 31ba 389c fcbc
00000070: ce6b b5bd b632 cebd 3899 acbc 60ec 21bc
00000080: e45c f43d 000a 7dba 64b2 37bd 0053 4f3d

actor.4.weight f4 [1, 36]
0.013759971 0.09381026 -0.026627183 -0.05357204 0.14521813 0.041697364 0.09700154 -0.035757184
-0.05803631 -0.037429772 0.080156565 -0.03430202 0.022257429 -0.1379765 0.091488585 0.053742252
-0.08492138 0.1181952 -0.07856333 -0.045675695 -0.0009563168 0.14857736 -0.0872616 -0.049369834
0.071862146 -0.13645276 -0.0058280034 -0.10501387 0.00238506 0.0693053 0.15654346 -0.10519525
-0.16381745 0.079098664 0.12499903 -0.04946711
00000000: 8071 613c 981f c03d 4021 dabc 5b6e 5bbd
00000010: 10b4 143e dbca 2a3d bea8 c63d 2076 12bd
00000020: 7bb7 6dbd f64f 19bd 2029 a43d 4680 0cbd
00000030: 3655 b63c b649 0dbe 5e5e bb3d d620 5c3d
00000040: 43eb adbd 5310 f23d d0e5 a0bd 7016 3bbd
00000050: 56b1 7aba aa24 183e 36b6 b2bd 0638 4abd
00000060: 762c 933d 46ba 0bbe d6f8 bebb 8311 d7bd
00000070: ab4e 1c3b f0ef 8d3d ee4c 203e 9b70 d7bd
00000080: c3bf 27be 7bfe a13d 7eff ff3d 069e 4abd

critic.0.weight f4 [64, 7]
-0.265954 0.33239847 0.20470046 0.029756457 -0.3765901 0.325175 -0.0044860877 -0.23254235
-0.2636223 -0.29871842 0.046987813 -0.30973917 0.22912237 0.20448658 -0.15189902 -0.13768847
-0.19462472 0.36549944 -0.13982433 -0.26657858 -0.03367276 0.28500488 -0.31067595 0.27386776
-0.32871297 -0.3065898 -0.2527024 -0.27348667 -0.30130988 -0.26911655 0.28136683 -0.2376065
0.22386833 0.29516718 -0.056799147 0.06765848 -0.12611027 0.14181569 0.2687205 -0.13328427
0.33944225 0.016269272 -0.22734685 -0.049884286 -0.04819137 0.3674028 -0.1240008 -0.34516773
0.10246046 0.16705865 0.3303317 0.24062592 0.18569969 -0.36056203 -0.0013910815 -0.056597877
-0.086758286 -0.12382764 0.18749991 -0.15656197 0.078857325 0.10114439 -0.28879204 0.056656957
0.12146806 0.2941107 0.08398318 0.016350148 0.092448905 0.053440068 -0.17937344 0.20962943
0.34040323 0.20465265 -0.051396918 0.06054416 -0.28516474 0.19615816 -0.2496515 0.0053264126
-0.25235277 -0.061563596 -0.11343755 0.062334068 0.25789782 -0.20418584 0.12641829 -0.17793843
0.29318163 -0.12803549 -0.35962802 0.23817699 0.21194641 0.045100585 -0.018693548 0.28665352
-0.37682107 -0.046410203 -0.22786729 -0.20554438 -0.17971268 0.29997396 0.23796429 0.37875947
0.10374909 -0.1740152 0.23731153 0.33084732 -0.32419857 -0.1463705 -0.15954642 -0.117839545
0.06931415 -0.371926 0.034872577 -0.3514637 -0.061786223 -0.3529389 0.15512249 0.08258049
-0.032792155 -0.12235335 0.28812918 -0.055129204 -0.21859747 -0.0771991 -0.29884976 -0.3557777
-0.32714346 -0.3054135 -0.3749332 -0.1258053 0.28731418 -0.19208328 -0.035318606 0.013187894
-0.17859705 -0.114261806 0.043275107 -0.34939688 -0.17931572 0.09638712 -0.20646776 0.038513202
-0.293068 -0.31676313 0.33690315 -0.28715846 0.15353855 0.33178937 0.19404604 0.113971144
0.015084141 -0.05237447 0.32803008 0.07204013 -0.23532048 -0.08979601 -0.2878787 -0.33066106
-0.3707935 0.32779557 -0.17969604 -0.21487129 -0.35724756 -0.3652166 -0.31380633 0.17081466
-0.30776384 0.1459487 -0.22753148 0.32496762 0.36977595 -0.38590688 0.19416404 0.34708405
-0.17574118 -0.22656797 0.3375573 0.11225537 0.10151815 0.2673743 0.26657927 -0.3200238
0.37026218 0.009256664 -0.35459667 -0.07065357 -0.18050852 0.19752444 0.032480344 0.2393989
0.23965217 -0.35843843 -0.12131052 -0.3151078 -0.09889142 0.27136874 0.32125285 -0.32818887
-0.12487477 0.09306382 -0.3065772 0.0051368033 -0.3123235 0.3769196 0.37406397 0.28031558
0.3278838 0.30642605 0.055349212 0.20686771 -0.054661084 -0.17204462 0.3718675 -0.012431419
0.30943024 0.0061580585 0.16728902 -0.1630019 -0.20061849 0.20521942 -0.06294382 0.034344513
-0.18466221 0.25690928 -0.021578968 0.24906431 0.115708984 -0.082317136 -0.049665608 -0.13202056
0.11855658 -0.13093248 0.21963172 0.1007292 -0.25127125 0.05173471 0.15258697 -0.14876656
-0.030922765 -0.2677724 0.0047138953 0.34623438 -0.012177251 -0.29250765 0.04268522 -0.26892295
0.22018817 0.34920183 0.05858678 0.32640713 0.11645986 0.1254291 -0.27777258 -0.1514963
00000000: 1f2b 88be 2230 aa3e ff9c 513e d0c3 f33c
00000010: 6bd0 c0be 567d a63e 0800 93bb 951f 6ebe
00000020: 81f9 86be 9ff1 98be 4b76 403d 2296 9ebe
00000030: 0e9f 6a3e ee64 513e 6b8b 1bbe 35fe 0cbe
00000040: b44b 47be be22 bb3e 1c2e 0fbe fd7c 88be
00000050: 73ec 09bd 29ec 913e eb10 9fbe 6538 8c3e
00000060: 114d a8be 57f9 9cbe 3562 81be 7206 8cbe
00000070: 4a45 9abe a5c9 89be 500f 903e 1e4f 73be
00000080: bd3d 653e 2720 973e 39a6 68bd 8790 8a3d
00000090: 0d23 01be 2238 113e bc95 893e ac7b 08be
000000a0: 60cb ad3e 2347 853c 9dcd 68be 7753 4cbd
000000b0: 5064 45bd 381c bc3e 22f4 fdbd d3b9 b0be
000000c0: cad6 d13d 6c11 2b3e 3d21 a93e a466 763e
000000d0: 0f28 3e3e 969b b8be f354 b6ba 2dd3 67bd
000000e0: 54ae b1bd 5999 fdbd faff 3f3e c851 20be
000000f0: f37f a13d ca24 cf3d 8ddc 93be 2011 683d
00000100: 3fc4 f83d ad95 963e 60ff ab3d bff0 853c
00000110: da55 bd3d f9e3 5a3d acad 37be 19a9 563e
00000120: 5549 ae3e 7790 513e 9385 52bd 27fd 773d
00000130: 1d01 92be afdd 483e a5a4 7fbe 3089 ae3b
00000140: 6234 81be 1c2a 7cbd f251 e8bd 0252 7f3d
00000150: 2f0b 843e 1816 51be cc73 013e 7e35 36be
00000160: e71b 963e bc1b 03be 2a21 b8be abe4 733e
00000170: 7b08 593e 64bb 383d 3623 99bc 40c4 923e
00000180: b1ee c0be a018 3ebd 0b56 69be 3a7a 52be
00000190: 9a06 38be 3096 993e e9ac 733e c3ec c13e
000001a0: 677a d43d 0a31 32be cb01 733e d264 a93e
000001b0: 5bfd a5be 26e2 15be 2360 23be dc55 f1bd
000001c0: 94f4 8d3d 166d bebe 8cd6 0e3d 0df3 b3be
000001d0: 8d13 7dbd 68b4 b4be 6ed8 1e3e f61f a93d
000001e0: 1151 06bd 6594 fabd ab85 933e 29cf 61bd
000001f0: 04d8 5fbe 901a 9ebd d602 99be 7f28 b6be
00000200: 597f a7be 295f 9cbe 3ff7 bfbe 1bd3 00be
00000210: d81a 933e 7bb1 44be 3eaa 10bd 0912 583c
00000220: 25e2 36be 1802 eabd 3d41 313d 26e4 b2be
00000230: 8a9e 37be 9c66 c53d 496c 53be 05c0 1d3d
00000240: 020d 96be c72e a2be 927e ac3e 6f06 93be
00000250: 3639 1d3e 4ce0 a93e 01b4 463e b469 e93d
00000260: 7923 773c 9d86 56bd 8ff3 a73e c789 933d
00000270: daf7 70be f8e6 b7bd d664 93be 684c a9be
00000280: a5d8 bdbe d2d4 a73e 3d02 38be 3807 5cbe
00000290: 27e9 b6be acfd babe 39ab a0be 0aea 2e3e
000002a0: 3993 9dbe 9373 153e 03fe 68be 2862 a63e
000002b0: 4653 bd3e 9695 c5be f0d2 463e 00b5 b13e
000002c0: 7ff5 33be 6f01 68be 4fd4 ac3e 25e6 e53d
000002d0: bfe8 cf3d 49e5 883e 147d 883e 29da a3be
000002e0: 0193 bd3e 43a9 173c b28d b5be d2b2 90bd
000002f0: 3ad7 38be d943 4a3e 1c0a 053d fc24 753e
00000300: 6167 753e 3e85 b7be a671 f8bd cf55 a1be
00000310: 9687 cabd d8f0 8a3e 417b a43e 5f08 a8be
00000320: 58be ffbd 3e98 be3d b0f7 9cbe a152 a83b
00000330: dee8 9fbe 9bfb c03e 5085 bf3e 8685 8f3e
00000340: 63e0 a73e e0e3 9c3e dbb5 623d 21d5 533e
00000350: 4de4 5fbd 772c 30be 6b65 be3e 27ad 4bbc
00000360: a46d 9e3e 8ac9 c93b d04d 2b3e f8e9 26be
00000370: ef6e 4dbe 0a25 523e b1e8 80bd d5ac 0c3d
00000380: 1718 3dbe 9d89 833e 60c6 b0bc b70a 7f3e
00000390: d5f8 ec3d e395 a8bd 2a6e 4bbd 6630 07be
000003a0: cbcd f23d 2a13 06be 23e7 603e 1c4b ce3d
000003b0: a0a6 80be c6e7 533d c23f 1c3e 4356 18be
000003c0: bd51 fdbc 7719 89be 0577 9a3b a245 b13e
000003d0: 1883 47bc 90c3 95be b2d6 2e3d 45b0 89be
000003e0: 0279 613e 95ca b23e b1f8 6f3d d61e a73e
000003f0: 8282 ee3d 7c70 003e 3538 8ebe d921 1bbe

critic.0.bias f4 [64]
-0.29915568 -0.2139861 -0.21751483 -0.34336582 0.05432994 0.24859184 -0.2122968 -0.010610213
0.020061273 0.14280087 0.19827764 -0.10724802 0.021780036 0.2423665 0.18474254 -0.10026629
0.3693479 0.37810653 -0.0864785 0.20874189 0.352302 -0.2692305 -0.14895569 -0.10912916
0.29695573 -0.050280783 0.057363775 -0.0185762 -0.06791674 -0.33737078 0.17140348 -0.22468062
-0.08674979 -0.32748982 -0.0094507355 -0.2962855 -0.056624964 -0.23952779 -0.06273609 -0.09678085
0.2809012 -0.11131283 -0.1454722 0.112015694 0.1284459 0.28460318 -0.006267761 -0.023410425
0.20519227 -0.34334943 -0.13909341 -0.003994989 -0.25895643 0.1785951 -0.2999952 -0.094749585
-0.032306403 0.057063986 -0.27433896 -0.25542167 -0.20567961 -0.34991777 0.06184005 0.24614526
00000000: ef2a 99be 2c1f 5bbe 35bc 5ebe a5cd afbe
00000010: 1289 5e3d dc8e 7e3e 5564 59be 75d6 2dbc
00000020: 8a57 a43c 643a 123e 4b09 4b3e daa4 dbbd
00000030: 0c6c b23c ec2e 783e 262d 3d3e 6a58 cdbd
00000040: 2b1b bd3e 2e97 c13e a41b b1bd 6fc0 553e
00000050: ee60 b43e 95d8 89be d787 18be 1c7f dfbd
00000060: 950a 983e 39f3 4dbd 47f6 6a3d 1d2d 98bc
00000070: ef17 8bbd ddbb acbe 6584 2f3e ad12 66be
00000080: e0a9 b1bd bfac a7be 42d7 1abc bcb2 97be
00000090: 94ef 67bd c646 75be c77b 80bd 0a35 c6bd
000000a0: 48d2 8f3e fbf7 e3bd aaf6 14be 7c68 e53d
000000b0: 5287 033e 82b7 913e ca61 cdbb 38c7 bfbc
000000c0: ec1d 523e 7fcb afbe 816e 0ebe 66e8 82bb
000000d0: f095 84be a2e1 363e f998 99be 120c c2bd
000000e0: b853 04bd edbb 693d 2876 8cbe a1c6 82be
000000f0: ad9d 52be 6c28 b3be fe4b 7d3d 810d 7c3e

critic.2.weight f4 [36, 64]
0.06853627 0.11593038 -0.036028832 0.12139575 -0.058260594 -0.061487604 -0.055859253 -0.002646029
-0.00444338 -0.121063225 0.04567251 0.09117361 -0.058803506 -0.010540832 -0.10720454 -0.039003745
0.0992078 -0.1151896 0.037642483 0.02110724 -0.035861917 0.092677236 0.052087545 0.026167654
-0.028733179 0.07540068 0.07521212 0.10977282 -0.057032242 -0.07711001 0.037253965 0.066542
0.08500242 0.017382398 0.101937234 0.004545763 0.07811686 0.09936796 -0.022890866 -0.041430697
0.10534448 0.11333549 0.026760384 -0.011802756 0.069005825 -0.07112103 0.0015527606 0.03531541
-0.053937573 -0.035842568 -0.098799795 0.058170035 0.08199245 -0.11539266 0.08731347 0.09633619
0.09936561 0.044067904 0.03071328 -0.006416321 -0.070045516 -0.026344955 0.09735525 0.04256002
-0.043476313 -0.060860768 -0.048543736 -0.011508197 -0.056307986 0.01840058 -0.0982174 0.09390065
-0.10099697 0.0977343 -0.004633516 -0.053450108 -0.044923782 -0.07736963 0.0077920556 0.09589858
-0.11449288 -0.020872504 -0.113889635 -0.11963768 0.116985574 0.00444746 0.0030242503 -0.029654935
-0.110320285 0.07304381 -0.009095237 0.00616543 -0.082868025 -0.0575096 -0.11541504 -0.015148789
0.12147172 -0.021282792 -0.046708405 0.10690379 0.06248088 -0.0711239 0.069144756 0.046999738
0.10871118 0.11862844 0.10768385 0.056796715 -0.05724831 -0.07154694 -0.031579003 -0.11752623
0.0022499561 0.114635944 0.014725953 -0.009780422 -0.08214414 -0.07648961 -0.1066843 -0.03417696
0.072660655 0.107145175 0.012715757 0.098175794 -0.085237026 -0.11406799 0.090873405 0.02614668
-0.07091516 -0.097376004 0.0046675573 -0.03759685 -0.12967254 0.016754257 -0.09408294 -0.0010833048
-0.03057975 -0.07866699 0.09581495 0.11552261 0.115684524 -0.07786344 0.059583366 -0.098862156
0.07476531 0.068017095 -0.013004467 -0.13297927 -0.043460805 -0.046514228 0.04488854 -0.08791423
0.015172335 0.06032947 0.053031202 0.079299584 0.038115054 -0.10828376 -0.0799985 0.097876996
-0.08398512 0.04573156 -0.040108416 0.10474458 -0.12095235 0.05777184 -0.045448914 -0.029798763
0.026137313 -0.02382383 -0.01086396 -0.12477716 -0.070108525 -0.13710175 0.08403335 0.085840836
0.059368372 0.12334803 -0.018071547 0.028948829 -0.057869747 0.059615396 -0.09359674 -0.023460642
0.07985138 -0.10259412 -0.087105855 0.001679182 0.04677917 -0.050003782 0.026387013 -0.12381088
0.039914638 0.10689261 -0.033143338 0.06855568 -0.0606638 -0.011192583 0.012772837 0.08685421
0.11972016 -0.103459954 0.061871085 0.026526636 -0.08249558 0.009984968 0.12205692 -0.08934204
0.11963786 -0.049129672 0.08006095 0.08588373 0.11720875 -0.12192428 0.085539505 0.073499404
-0.02937243 0.06350991 -0.08802364 -0.05290557 -0.04273943 0.062142514 0.081775114 -0.12122646
-0.08314581 -0.07783608 0.104432665 0.0940166 -0.09777172 0.09084158 0.06834441 0.03400832
0.10175851 0.053227868 -0.09689982 -0.044075787 0.103503324 -0.092654884 -0.10675736 -0.13381459
0.069877684 0.0028802156 0.10091287 -0.060971443 -0.050045457 0.13549998 0.103060916 0.0022146988
0.08801685 -0.09978337 0.01623714 -0.07420705 -0.10066968 -0.020038947 0.044998895 0.08260588
00000000: be5c 8c3d e86c ed3d f892 13bd 569e f83d
00000010: a9a2 6ebd 6dda 7bbd accc 64bd 0069 2dbb
00000020: c699 91bb ffef f7bd 1913 3b3d 3bb9 ba3d
00000030: f2db 70bd 74b3 2cbc 0e8e dbbd 64c2 1fbd
00000040: 762d cb3d 86e8 ebbd 012f 1a3d 17e9 ac3c
00000050: f2e3 12bd 90cd bd3d c059 553d 8c5d d63c
00000060: d861 ebbc ac6b 9a3d d008 9a3d 92d0 e03d
00000070: a49a 69bd daeb 9dbd 9d97 183d 2c47 883d
00000080: c015 ae3d 8865 8e3c 78c4 d03d a0f4 943b
00000090: bbfb 9f3d 6e81 cb3d a085 bbbc 3cb3 29bd
000000a0: d9be d73d 701c e83d 9838 db3c 5960 41bc
000000b0: ed52 8d3d e7a7 91bd 0086 cb3a e4a6 103d
000000c0: a5ed 5cbd a8cf 12bd 8c57 cabd b443 6e3d
000000d0: a8eb a73d fd52 ecbd 68d1 b23d e94b c53d
000000e0: 3280 cb3d 8c80 343d 6b9a fb3c 0040 d2bb
000000f0: 0674 8fbd 60d1 d7bc 3062 c73d 6a53 2e3d
00000100: 3814 32bd 2449 79bd ccd5 46bd e08c 3cbc
00000110: 34a3 66bd d0bc 963c 3426 c9bd fc4e c03d
00000120: 80d7 cebd ec28 c83d c0d4 97bb 80ee 5abd
00000130: 0002 38bd f873 9ebd 8054 ff3b 7a66 c43d
00000140: 3e7b eabd d0fc aabc f83e e9bd 9a04 f5bd
00000150: 2296 ef3d 00bc 913b 8032 463b e8ee f2bc
00000160: 9aef e1bd fe97 953d 3004 15bc 6007 ca3b
00000170: b6b6 a9bd 308f 6bbd b85e ecbd a032 78bc
00000180: 2ac6 f83d 4059 aebc 5051 3fbd 60f0 da3d
00000190: f4eb 7f3d 68a9 91bd c49b 8d3d cc82 403d
000001a0: f8a3 de3d 78f3 f23d 5a89 dc3d aca3 683d
000001b0: 347d 6abd 3487 92bd fc58 01bd 98b1 f0bd
000001c0: 0074 133b 40c6 ea3d 2045 713c 103e 20bc
000001d0: 303b a8bd 96a6 9cbd 4c7d dabd 24fd 0bbd
000001e0: 1ccf 943d ee6e db3d c055 503c 6410 c93d
000001f0: c090 aebd 7a9c e9bd d61b ba3d 9031 d63c
00000200: f83b 91bd 126d c7bd 4ff2 983b 28ff 19bd
00000210: e1c8 04be 3940 893c 8eae c0bd adfd 8dba
00000220: 6282 fabc 291c a1bd a13a c43d 1e97 ec3d
00000230: 02ec ec3d de76 9fbd b00d 743d 3e78 cabd
00000240: 8e1e 993d 8c4c 8b3d b010 55bc b82b 08be
00000250: f503 32bd b485 3ebd 0cdd 373d 600c b4bd
00000260: 6395 783c 091c 773d 3f37 593d d267 a23d
00000270: 881e 1c3d e0c3 ddbd 41d6 a3bd bc73 c83d
00000280: 6400 acbd 0451 3b3d b948 24bd 5484 d63d
00000290: deb5 f7bd 2aa2 6c3d a428 3abd 891c f4bc
000002a0: eb1d d63c 312a c3bc c0fe 31bc 2b8b ffbd
000002b0: 0f95 8fbd 6764 0cbe ad19 ac3d 52cd af3d
000002c0: 402c 733d e49d fc3d c80a 94bc 1826 ed3c
000002d0: d408 6dbd 462f 743d a6af bfbd 8830 c0bc
000002e0: 1f89 a33d de1c d2bd 8e64 b2bd 0018 dc3a
000002f0: 849b 3f3d c4d0 4cbd 9429 d83c 8f90 fdbd
00000300: 887d 233d 83ea da3d 4fc1 07bd ec66 8c3d
00000310: 9b7a 78bd 1861 37bc 2945 513c 9fe0 b13d
00000320: d82f f53d d0e2 d3bd 896c 7d3d 634e d93c
00000330: 71f3 a8bd fe97 233c faf8 f93d f6f8 b6bd
00000340: b204 f53d 323c 49bd fff6 a33d cfe3 af3d
00000350: 240b f03d 70b3 f9bd 562f af3d db86 963d
00000360: 739e f0bc 7c11 823d bd45 b4bd 83b3 58bd
00000370: 8a0f 2fbd 2689 7e3d b679 a73d 9445 f8bd
00000380: 5a48 aabd 8668 9fbd cbe0 d53d c68b c03d
00000390: 8a3c c8bd 260b ba3d 27f8 8b3d 4f4c 0b3d
000003a0: c466 d03d 7705 5a3d 6a73 c6bd d088 34bd
000003b0: 8df9 d33d d8c1 bdbd 9aa3 dabd b106 09be
000003c0: 081c 8f3d 00c2 3c3b 68ab ce3d 31bd 79bd
000003d0: 77fc 4cbd 82c0 0a3e 9a11 d33d 7b24 113b
000003e0: 2e42 b43d 395b ccbd c003 853c def9 97bd
000003f0: e82b cebd b828 a4bc c350 383d 462d a93d

critic.2.bias f4 [36]
-0.08323113 -0.07817064 -0.030656114 -0.03472518 0.050571363 -0.020753248 0.02279749 -0.0039667194
-0.045286737 0.0698088 0.09465521 -0.024619274 0.12998444 -0.024045844 0.029234774 -0.074493825
-0.052103102 -0.080123425 -0.071855165 -0.06561682 -0.091960445 -0.034908682 0.07848585 -0.08376692
-0.048112042 -0.04060732 -0.036535047 0.03987833 0.06186303 -0.07004214 -0.042415168 -0.12366618
0.10261952 -0.066544116 0.13138239 -0.118343756
00000000: 1575 aabd ee17 a0bd 8822 fbbc fe3b 0ebd
00000010: eb23 4f3d b702 aabc cdc1 ba3c 41fb 81bb
00000020: 967e 39bd ebf7 8e3d 97da c13d 5cae c9bc
00000030: a41a 053e cafb c4bc c47d ef3c 3890 98bd
00000040: 106a 55bd c017 a4bd cd28 93bd 1c62 86bd
00000050: c255 bcbd 68fc 0ebd 30bd a03d fe8d abbd
00000060: 2211 45bd dc53 26bd c6a5 15bd 7657 233d
00000070: 1764 7d3d 4172 8fbd 87bb 2dbd b244 fdbd
00000080: 2f2a d23d 4848 88bd 1b89 063e 365e f2bd

critic.4.weight f4 [1, 36]
0.13120395 -0.07077026 0.036993936 0.11457703 0.052756015 0.12607192 -0.09944865 -0.049936216
-0.13876764 0.016990783 0.09726911 0.118202075 0.18006012 0.10905453 -0.109134294 0.010737838
-0.15400821 -0.14211313 -0.14304556 -0.052898806 0.12160834 -0.057744723 -0.06872172 -0.06556531
-0.0772639 -0.054442625 -0.02534724 -0.062408134 0.120166406 -0.14540793 -0.13523526 -0.13129005
0.17091852 -0.0027998686 0.029173758 0.11223976
00000000: 545a 063e 00f0 90bd f486 173d 5da7 ea3d
00000010: b116 583d ff18 013e bcab cbbd eb89 4cbd
00000020: 1b19 0ebe 4130 8b3c 0735 c73d ee13 f23d
00000030: ae61 383e fb57 df3d cd81 dfbd c2ed 2f3c
00000040: 54b4 1dbe 1b86 11be 897a 12be 6bac 58bd
00000050: cb0d f93d bb85 6cbd f9bd 8cbd 1b47 86bd
00000060: 893c 9ebd 3bff 5ebd 04a5 cfbc ac9f 7fbd
00000070: ce19 f63d d1e5 14be 1d7b 0abe e670 06be
00000080: 4405 2f3e 007e 37bb cefd ee3c f6dd e53d
